results/direction_layer_12.npy (npy, 3712 bytes, 1 tensors)

array f4 [896]
0.088397175 0.20448734 0.02055468 0.09378546 0.0012407266 -0.31617853 0.015751153 -0.026521532
-0.016742662 -0.07301792 -0.08552785 0.026558168 -0.0013428107 -0.037138462 -0.012248013 0.006073199
-0.007678736 0.00094622374 0.43389174 0.052559108 -0.055526208 0.04746238 -0.00019436982 -0.19148856
0.034846447 -0.06673875 0.025223065 -0.016722571 0.022622837 0.0970853 0.031978354 -0.0054338574
-0.06379416 -0.028176427 -0.10165009 0.6233108 0.01298178 -0.04008384 0.020423649 0.05010172
0.35403883 -0.010414004 -0.02870012 -0.15808974 0.033399023 0.030001272 0.026918277 -0.088677645
0.044291556 0.032731067 -0.08754635 0.012940653 -0.0057395566 -0.82709193 0.063526876 -0.17818241
0.27207494 0.013014164 -0.6964524 0.08443878 0.14793986 0.065848835 -16.875893 -0.046864398
-0.085490316 -0.080589294 0.010854259 0.2740374 -0.07467356 0.030044572 0.23553689 -0.005574271
0.039201774 0.02441012 -0.028625775 0.07943052 0.41014898 0.00066543533 0.05908838 0.07692072
0.15422133 -0.0901386 -0.08726914 0.109907344 0.0028362647 -0.011154756 0.030995129 0.054571245
0.04789859 0.19512878 -0.031891007 0.031187292 -0.043175444 0.0025955439 -0.012199853 0.03592533
-0.049101587 -0.040407535 0.0008344464 -0.053879112 0.14065354 0.0050147623 -0.01955464 -0.033036813
0.04419279 0.005868152 -0.27742273 -0.012983456 0.16034304 0.0028208643 -0.018667862 -0.038843792
-0.09527373 -0.023516323 -0.0071658865 0.035694193 0.0130719915 0.020378035 -0.00088606775 0.036369257
-0.033873644 0.010931013 -0.02791534 -0.1424375 -0.04745027 0.009936875 0.26020437 -0.02238442
0.041081034 0.06327961 0.003212683 0.050883412 0.092938974 0.13332473 -0.008777477 0.060481645
-0.03825816 0.08823469 0.053925905 0.013993472 -0.05264792 -0.07376958 -0.13076374 0.10180858
-0.18272142 -0.1137715 -0.1836425 -0.11409466 -0.04617395 0.0065625776 -0.06896541 0.04815314
-0.1393528 0.04657887 0.043483354 0.13643642 0.012140274 0.07926065 0.10479095 0.04463646
0.0031220578 -0.08157067 0.045120217 -0.05763287 0.004764212 0.02036042 0.062942274 -0.008967068
0.008588975 0.06356974 -0.7060753 0.011906635 -0.019052744 -0.26815718 -0.05631919 -0.04884821
0.20773834 -0.04389514 -0.015798632 0.056829542 -0.044678457 -0.16274178 0.067329094 0.034713417
-0.009336907 -0.09228126 0.029366879 0.08290125 -0.021271106 0.16413899 0.034408458 -0.042969294
-0.10873395 -0.00927422 0.0015390292 -0.018593438 0.024778977 0.14318004 -0.026182551 -0.01642452
0.04362636 -0.10592442 0.07020474 0.105206475 -0.082858235 0.0057685487 -0.06397189 -0.0111208595
-0.51774585 -0.039227907 0.036976904 0.027630776 -0.026787326 0.069349796 0.17682251 0.019935526
0.004291281 0.030839127 -0.049000576 -0.021673292 -0.09138188 -0.028059537 -0.045995474 -0.047940508
0.06359583 0.007210493 0.0371987 -0.035369582 0.11990972 0.009147279 0.0016447157 0.083897114
0.00460127 -0.027419 -0.033984173 -0.045343563 0.024836276 -0.056631345 -0.01033626 -0.033422664
0.00091219693 0.04400845 -0.09846406 -0.19320646 0.03734893 -0.012860937 0.04470256 -0.009156501
-0.085011475 0.003883481 0.03668982 -0.049793016 -0.09043488 0.05131194 -0.046696853 0.107970044
00000000: 9409 b53d 2165 513e 4a62 a83c 9712 c03d
00000010: e09f a23a 27e2 a1be 9008 813c af43 d9bc
00000020: e827 89bc 6b8a 95bd 3a29 afbd 8490 d93c
00000030: 4001 b0ba 801e 18bd e4ab 48bc b001 c73b
00000040: e89d fbbb 000c 783a 0f27 de3e 3848 573d
00000050: 736f 63bd ea67 423d c0cf 4bb9 9415 44be
00000060: 26bb 0e3d 53ae 88bd 9aa0 ce3c c6fd 88bc
00000070: 8753 b93c a8d4 c63d bcfb 023d 800e b2bb
00000080: 83a6 82bd 40d2 e6bc ec2d d0bd 4c91 1f3f
00000090: 88b1 543c f42e 24bd 7f4f a73c 7637 4d3d
000000a0: 9444 b53e 809f 2abc 841c ebbc 47e2 21be
000000b0: 6acd 083d 3ac5 f53c b883 dc3c a09c b5bd
000000c0: 106b 353d 0311 063d 804b b3bd 0805 543c
000000d0: e412 bcbb 4cbc 53bf 611a 823d 7375 36be
000000e0: 684d 8b3e 5c39 553c b44a 32bf 3dee ac3d
000000f0: 8c7d 173e c1db 863d d401 87c1 e2f4 3fbd
00000100: 8c15 afbd 000c a5bd 10d6 313c a14e 8c3e
00000110: 74ee 98bd 0920 f63c 9530 713e 60a8 b6bb
00000120: 0a92 203d bbf7 c73c 9a80 eabc 78ac a23d
00000130: 0cff d13e 9c70 2e3a a806 723d 9c88 9d3d
00000140: 32ec 1d3e 969a b8bd 2aba b2bd 1a17 e13d
00000150: a0e0 393b 70c2 36bc 7fe9 fd3c 1986 5f3d
00000160: 5031 443d d7cf 473e 25a0 02bd 7e7c ff3c
00000170: bcd8 30bd 001a 2a3b e4e1 47bc 7026 133d
00000180: bf1e 49bd 5f82 25bd c0be 5a3a 58b0 5cbd
00000190: 7b07 103e e052 a43b 0d31 a0bc 9c51 07bd
000001a0: 8003 353d a049 c03b 5a0a 8ebe 90b8 54bc
000001b0: f730 243e 40de 383b 58ed 98bc ab1a 1fbd
000001c0: e01e c3bd 4ea5 c0bc d0cf eabb 1334 123d
000001d0: e82b 563c d6ef a63c 0047 68ba eef7 143d
000001e0: 17bf 0abd fe17 333c b6ae e4bc 23db 11be
000001f0: 375b 42bd 46ce 223c 8239 853e 885f b7bc
00000200: 9644 283d bd98 813d e08b 523b 206b 503d
00000210: ca56 be3d 4786 083e 68cf 0fbc 9abb 773d
00000220: 97b4 1cbd 64b4 b43d 69e1 5c3d e044 653c
00000230: 58a5 57bd 8114 97bd eee6 05be 0481 d03d
00000240: 531b 3bbe 0801 e9bd c80c 3cbe 76aa e9bd
00000250: e520 3dbd e40a d73b bd3d 8dbd 3a3c 453d
00000260: 80b2 0ebe 7cc9 3e3d 9a1b 323d fdb5 0b3e
00000270: 00e8 463c 6853 a23d a39c d63d b8d4 363d
00000280: 709b 4c3b 860e a7bd facf 383d 7210 6cbd
00000290: 1b1d 9c3b e5ca a63c e1e7 803d 9cea 12bc
000002a0: c6b8 0c3c da30 823d 5ac1 34bf 0c14 433c
000002b0: 8014 9cbc e64b 89be f3ae 66bd 1015 48bd
000002c0: 5cb9 543e 64cb 33bd 226c 81bc 18c6 683d
000002d0: c200 37bd c8a5 26be d6e3 893d a82f 0e3d
000002e0: d4f9 18bc f5fd bcbd cf92 f03c 21c8 a93d
000002f0: be40 aebc 0d14 283e e2ef 0c3d 9200 30bd
00000300: e8af debd e6f2 17bc 40b9 c93a 4451 98bc
00000310: 48fd ca3c ca9d 123e ca7c d6bc b78c 86bc
00000320: 8eb1 323d e7ee d8bd 81c7 8f3d 7e76 d73d
00000330: 94b1 a9bd 1806 bd3b b203 83bd 4434 36bc
00000340: fe8a 04bf 71ad 20bd 1875 173d f059 e23c
00000350: 1871 dbbc 4407 8e3d f610 353e d44f a33c
00000360: e09d 8c3b 56a2 fc3c d4b4 48bd 308c b1bc
00000370: 6c26 bbbd 1ddd e5bc c065 3cbd 445d 44bd
00000380: 883e 823d 0046 ec3b aa5d 183d b2df 10bd
00000390: 3a93 f53d 78de 153c 8093 d73a 40d2 ab3d
000003a0: 40c6 963b d09d e0bc fd32 0bbd 2cba 39bd
000003b0: 7275 cb3c 45f6 67bd 6b59 29bc 34e6 08bd
000003c0: 8020 6f3a 3442 343d 86a7 c9bd ead7 45be
000003d0: 31fb 183d aeb6 52bc 081a 373d 2605 16bc
000003e0: 7f1a aebd 0082 7e3b 1148 163d c3f3 4bbd
000003f0: ec35 b9bd 782c 523d 3345 3fbd 661f dd3d
