results/direction_layer_0.npy (npy, 3712 bytes, 1 tensors)

array f4 [896]
000000 75 ac c7 3c 6c 94 cd 3b 89 70 74 bc 68 9d 3a bb
       0.024374226 0.006273797 -0.014919409 -0.002847517
000010 7f 9d 8a 3a 44 f8 35 bc 00 00 bd 38 9e f8 76 bc
       0.0010575502 -0.011106554 9.012222e-05 -0.015073923
000020 18 b3 a8 3b 98 66 fe 3a 2a e4 b5 3b 80 25 9a 3c
       0.0051483028 0.0019409237 0.005550881 0.01881671
000030 60 d1 ae b8 5f b3 e2 3b 00 c0 13 bc e4 fd 5a bc
       -8.335966e-05 0.0069183554 -0.009017944 -0.013366196
000040 97 22 a5 3b 06 0f 96 bb 36 0e 26 bc fc b4 e4 3b
       0.005039524 -0.0045794277 -0.010135224 0.006979583
000050 cd 28 bf bb 13 ca f2 3c 78 d5 b8 3a e4 d6 e0 3b
       -0.0058337213 0.029637372 0.0014101705 0.0068615545
000060 b7 58 4c 3c 70 29 f8 bb 7c 78 6c 3b 20 9b 7d 3c
       0.012472323 -0.007573299 0.0036082556 0.015478879
000070 78 df f0 3b ef 84 b2 3b 80 a1 bc b9 ec 23 38 3c
       0.0073508583 0.005447976 -0.0003597848 0.011239033
000080 af bf 32 bd 68 74 d8 3a fc f1 6b bb f0 73 c6 ba
       -0.043639835 0.0016514184 -0.0036002388 -0.0015140753
000090 22 8d d9 3b 50 27 ed 3b 08 bd ed ba 28 e0 1b 3a
       0.006639139 0.0072373524 -0.0018138001 0.00059461826
0000a0 0e 38 82 3c e6 c2 cc bb a4 31 04 bb 29 ef 59 bc
       0.01589587 -0.0062488196 -0.002017119 -0.013301649
0000b0 58 f6 25 3b 4e ec 39 3c c1 ac be bc 1f 21 b5 3c
       0.0025323834 0.011347843 -0.023275735 0.02211052
0000c0 dc 50 19 3b 75 6b 99 bc 00 93 66 3b bc cd 07 3c
       0.0023394143 -0.018727997 0.0035182834 0.008288797
0000d0 08 be d5 bb d0 dd e0 3c f0 58 5a 3b 31 80 4e 3c
       -0.0065228976 0.027449518 0.003331717 0.012603805
0000e0 4c 0e b0 bc e8 31 44 3b 74 ab 15 bc 37 a2 75 bc
       -0.021491192 0.0029936973 -0.009135116 -0.014992288
0000f0 c6 34 e7 3b 64 b0 e3 bb 24 c7 3b bc 88 88 52 bb
       0.0070558516 -0.0069485176 -0.011461053 -0.0032124836
000100 0d 8e c8 bb 90 0a ec bb d6 e2 28 3c 34 52 43 3d
       -0.0061204494 -0.0072034076 0.010307988 0.047685817
000110 58 d4 95 3b 8c 5d bb 3c e0 70 58 bd 4e 10 36 3c
       0.0045724325 0.022871755 -0.05284202 0.011112286
000120 66 b2 aa 3a 80 82 d3 ba 48 63 4a 3b 70 30 30 3c
       0.0013023138 -0.0016136914 0.003088193 0.010753736
000130 f0 7d 40 3c 80 0c 3e 3c e0 28 0a 3c fb b3 12 bc
       0.011748776 0.01159966 0.008432597 -0.0089540435
000140 77 97 a8 3b d6 69 b3 bc 80 ae 74 b9 78 75 3b bb
       0.005145009 -0.021901052 -0.0002333466 -0.0028603952
000150 00 22 a0 38 44 a4 48 3c d2 02 b7 3b 12 01 4d 3c
       7.6357275e-05 0.012246195 0.005585053 0.012512462
000160 e5 56 2f bc 1c bf 27 3c 3c 9b fd bb ef 06 05 bc
       -0.01070187 0.010238435 -0.0077394526 -0.008119329
000170 a0 b9 eb 3a e8 db 49 bb 08 4e 9d 3b 33 26 60 3d
       0.0017984398 -0.003080124 0.004800562 0.05472393
000180 da 84 1c bc e0 66 b0 b9 10 36 c4 ba fc d5 f0 3b
       -0.009553159 -0.00033645984 -0.0014969725 0.0073497277
000190 3f 37 34 3d d0 fc 1c bb 0f ea 71 bc 00 92 6b 3c
       0.043998 -0.00239544 -0.014765277 0.014378071
0001a0 6d da 64 bc 4b 81 e6 3b 12 c4 74 bc 28 91 14 3b
       -0.013968092 0.007034456 -0.014939325 0.0022669528
0001b0 ac b9 ac 3b 58 c8 4b bb cc 69 06 bc 3c 67 ec 3a
       0.0052711572 -0.0031094756 -0.008203935 0.0018036137
0001c0 c1 a7 53 bc de d0 c0 bb 10 6b 24 3b 57 c0 87 bb
       -0.012918414 -0.005884274 0.0025088228 -0.0041428017
0001d0 55 ef 06 3c 40 5d 18 bb fb 0f 08 bc ca ec 5b bc
       0.008235772 -0.002324894 -0.008304591 -0.013423154
0001e0 30 0e 9c bb 00 05 ae 35 18 28 69 3b 84 89 bc 3a
       -0.0047624335 1.2965465e-06 0.0035576876 0.0014384245
0001f0 a0 54 bf bb 9e 24 67 3b ca 91 ed 3b 20 de c0 3a
       -0.0058389455 0.0035269628 0.0072500454 0.0014714636
000200 c0 e9 b2 ba 6a f1 48 3b 00 0c cc b9 05 ea aa 3c
       -0.0013649985 0.0030661472 -0.00038918853 0.020863542
000210 ba d4 76 3c 40 0e e3 ba f8 c3 1f 3c d1 ec 8c bb
       0.015065366 -0.0017322972 0.009751312 -0.0043006917
000220 10 b6 95 ba b0 b0 83 ba 80 d4 37 39 94 13 68 3c
       -0.0011422057 -0.0010047164 0.00017531402 0.014164824
000230 10 3a cb bb 0a e6 4c bc ae a6 54 bd 60 39 9e ba
       -0.00620199 -0.012506017 -0.05191677 -0.0012071542
000240 e3 a9 06 bb f8 60 5b bb a0 0b 2a bb cc 08 6b bb
       -0.0020548038 -0.0033474546 -0.002594687 -0.0035863398
000250 87 f8 90 bc 78 1d bf bb 8d 46 88 bc 80 3a b1 3a
       -0.017696632 -0.0058323704 -0.016635204 0.0013521463
000260 ec f0 47 bc 00 9f 71 3b e0 b5 4a 3a 04 1a 4b bc
       -0.012203436 0.0036868453 0.000773279 -0.012396339
000270 d8 3d 52 bc 8c e1 56 3b 68 89 39 bc b9 c5 90 3b
       -0.0128321275 0.0032788245 -0.011324264 0.0044181016
000280 2e 69 0b 3c e4 1f 52 bc 24 52 e4 3b 18 4d 22 3c
       0.0085089635 -0.012824986 0.0069677997 0.009906076
000290 00 07 d3 b9 de 8c 8e 3b fb 07 d1 bb 8b ad 05 bb
       -0.00040250272 0.004350289 -0.006379125 -0.002039763
0002a0 8e d0 26 3c 90 5f ec 3a d7 69 74 3c cf 9a 94 3b
       0.010181559 0.0018033851 0.014917812 0.004535056
0002b0 50 77 97 bb 56 a0 55 bd d0 f5 ff ba 44 a3 51 bc
       -0.0046223775 -0.05215486 -0.0019528214 -0.012795273
0002c0 a0 dc b2 ba 3d db 83 3c e8 65 2e bb 36 35 b9 bc
       -0.0013646074 0.016095752 -0.0026611034 -0.02260838
0002d0 34 e9 b9 3b 2c de 52 bd a8 bf 05 bc 9e b3 8b 3b
       0.005673552 -0.05148141 -0.00816337 0.0042633554
0002e0 98 a5 17 3c ac 4a 99 bb 6c 58 91 bc fb 0e a4 3b
       0.009255789 -0.004678091 -0.017742358 0.0050066686
0002f0 30 04 1e ba bd be 01 3c e0 28 d2 3b 46 1a 7c 3c
       -0.00060278457 0.007919011 0.006413564 0.015387123
000300 48 62 0f 3c 40 b7 33 bc 38 3f 97 bb ba 18 49 bc
       0.008751459 -0.010968983 -0.0046156906 -0.012273962
000310 d8 80 23 3c 16 fd a1 3c 70 64 a3 ba d0 ba a9 3a
       0.009979449 0.019774001 -0.0012465846 0.0012949351
000320 59 d9 88 3b a6 18 c7 bc a0 89 99 ba cf cb 8d 3c
       0.0041763005 -0.024303745 -0.0011713989 0.017309098
000330 cc 2c 28 3c ac bf e3 bc e9 2a 5c bc 08 19 15 bb
       0.010264587 -0.027801357 -0.013437965 -0.0022750515
000340 58 03 98 3c ac a0 d7 bb 88 d1 7d bc fb 99 28 3c
       0.018556282 -0.006580433 -0.015491851 0.010290618
000350 11 b2 04 3c d4 bd 18 bc 2f e4 af 3c b0 71 66 bb
       0.008099095 -0.009322602 0.021471111 -0.0035162978
000360 30 93 ad ba 14 f7 34 bc 00 34 14 bc f0 23 69 bb
       -0.0013242718 -0.011045236 -0.009045601 -0.00355744
000370 20 1c 40 3b d4 3d cd bb 64 2b 2e 3c fe 8e 24 bc
       0.0029313639 -0.006263474 0.010630462 -0.010043858
000380 47 0c 05 3d 0b c4 39 3c c0 96 25 3a cd 0b 67 3c
       0.03248241 0.011338244 0.0006316714 0.014101935
000390 69 9d bb ba d0 8c 39 bc 9c bc aa 3b 28 9d 8b ba
       -0.001431388 -0.011325076 0.0052104723 -0.0010651695
0003a0 20 f3 62 3b 50 2e 9d 3a be f3 4a bc 60 b8 0e ba
       0.0034629777 0.0011991952 -0.012387214 -0.0005444344
0003b0 63 31 15 bb 57 e2 34 bc 54 06 d0 3b 0d ff 41 3c
       -0.0022765032 -0.011040292 0.0063484106 0.011840594
0003c0 18 e2 3a 3c 7c 7d 10 bc b4 3e 9f 3a 13 76 22 bc
       0.011406444 -0.00881898 0.0012149424 -0.009915846
0003d0 10 09 2d bb e0 d9 09 ba a8 7b 91 3b a4 7d ab 3b
       -0.0026403107 -0.0005258601 0.00443979 0.0052334834
0003e0 60 06 84 ba 6c ea 01 bc 28 bc ea 3b c0 4e bb 3a
       -0.0010072701 -0.007929426 0.0071635433 0.0014290437
0003f0 10 94 e5 ba 0c 0c ee 3b 70 c0 ab 3a 42 eb 5b 3c
       -0.001751544 0.0072646197 0.0013103615 0.013422789
