results/direction_layer_23.npy (npy, 3712 bytes, 1 tensors)

array f4 [896]
0.31528813 1.3126979 0.73681027 1.0552332 0.9344202 0.34627742 -0.8406044 1.2604973
-1.4587901 0.2057892 0.7833387 -0.33153608 0.05020404 0.399537 0.3297016 -0.6501576
0.8686234 -0.31500825 2.0024738 -2.116348 0.5590707 -0.82182276 0.3953096 0.57911146
0.8212755 0.75517654 -3.0101566 0.045755293 -1.3515449 0.22622477 1.1865448 -0.8205368
-0.1395682 0.008820593 0.48850474 6.7807417 1.1295104 0.45883626 0.7126458 0.70161045
0.024651393 -0.35197228 -0.13177392 -0.38589156 0.068080306 10.087863 -0.044909358 -1.0885551
0.9029455 -0.349299 1.5554112 0.79188526 0.4571537 -18.008926 -0.72881496 -0.6812005
1.6888075 1.8673713 -8.002306 -2.2723038 1.3675914 0.3529992 -0.73525465 -0.025830224
-1.1389447 -1.3496428 -1.3302857 2.2741508 0.013471961 -0.5688163 0.7285078 0.0064046383
-1.1751938 1.3410717 -0.8382953 -22.451069 3.268879 1.3262308 0.28515655 -0.10828853
4.960163 -0.16038835 -0.1962943 -0.005698681 -0.4464648 -3.2628536 -0.49077743 0.76186866
1.5900013 0.03768733 -0.16617537 0.49193457 -1.2230422 0.3466477 -0.8806398 0.64337635
-0.19913125 1.5192049 0.09272009 2.0342145 0.85724294 0.44783372 -1.7275975 0.3130467
-0.510196 -1.6908764 -1.080862 0.8729913 -1.3149304 1.1456453 0.5258504 1.6501465
2.0954237 -1.8404285 -0.8886764 -0.498518 -1.17547 0.16217746 -0.19025922 -0.06691468
0.91469115 1.1445343 0.9588904 -1.9356949 0.17272866 -0.6575358 2.2212045 0.18209171
1.0627517 0.4250943 -0.4482122 -0.00014156103 0.22690576 -0.32106048 -0.2901986 0.10879576
-1.237596 0.85100746 1.3213508 0.5529177 0.92765766 -1.4841564 -0.6573114 -0.5733091
-0.95318943 -0.30576456 0.14422584 -0.64149666 -0.63557005 -1.4986346 0.22613883 -0.01025188
-0.35064012 -0.15417838 -0.6144002 0.8762512 1.0089966 -0.8074174 0.47120482 0.11392975
1.8433218 -2.3377092 0.5628334 -5.1471357 -1.0198885 -2.038008 0.9106803 0.20506299
-1.013099 0.9926262 -7.312581 -0.5033081 1.446739 -0.2250042 0.4379109 -0.7423792
0.4317761 0.83358485 0.6081153 -0.38316417 -1.2685163 0.19827974 -0.6269088 -0.5642449
1.012255 -1.0992181 -0.88906467 1.0867918 1.624323 0.46092585 12.490866 -0.417704
-0.52493966 -0.85058784 0.5683546 0.6840695 -0.025655448 0.24743557 0.3695202 0.69104767
1.168941 0.3053125 1.2620692 -0.72034717 -0.4912348 -0.3992965 0.099493414 -2.2461512
-1.1507528 0.538605 0.50825113 0.08940256 0.3580348 0.5945858 1.162619 -1.2683121
0.6973988 -0.8981925 0.90930927 -0.89229786 -1.2331511 -12.899329 0.52101296 0.6658384
0.5520258 0.42897585 0.75904274 -0.73115826 0.59191513 0.47104663 -1.5966094 -2.23953
-0.9836338 -0.30789834 -1.1128302 -0.650779 1.246814 0.6152396 -0.22572082 -1.9869816
0.7205597 -14.52433 1.143779 -2.6971765 -1.5450048 -0.22118425 -0.82077754 -0.6860206
-0.0055752397 0.93609464 4.307536 -0.21417585 0.27540696 0.8202703 0.49697196 -0.7596017
00000000: 726d a13e 7c06 a83f 999f 3c3f e211 873f
00000010: 2a36 6f3f 464b b13e da31 57bf fa57 a13f
00000020: a2b9 babf 67ba 523e e388 483f 19bf a9be
00000030: c0a2 4d3d 1d90 cc3e a6ce a83e ba70 26bf
00000040: 1a5e 5e3f c348 a1be 8828 0040 3f72 07c0
00000050: 421f 0f3f fa62 52bf 0566 ca3e a640 143f
00000060: 1c3f 523f 4053 413f 68a6 40c0 e769 3b3d
00000070: 6cff acbf 77a7 673e b3e0 973f b30e 52bf
00000080: f7ea 0ebe 4084 103c 4b1d fa3e d6fb d840
00000090: cc93 903f 96ec ea3e f56f 363f be9c 333f
000000a0: b8f1 c93c b635 b4be beef 06be 9493 c5be
000000b0: b06d 8b3d e367 2141 e0f2 37bd c655 8bbf
000000c0: 7027 673f 52d7 b2be b717 c73f feb8 4a3f
000000d0: 0d10 ea3e 4812 90c1 9e93 3abf 2863 2ebf
000000e0: d82a d83f 0606 ef3f 7209 00c1 6d6d 11c0
000000f0: 3c0d af3f 50bc b43e a639 3cbf e899 d3bc
00000100: f1c8 91bf 18c1 acbf cd46 aabf b08b 1140
00000110: 80b9 5c3c f29d 11bf 7d7f 3a3f 00de d13b
00000120: c06c 96bf 3da8 ab3f 859a 56bf ca9b b3c1
00000130: 5035 5140 eec1 a93f 0a00 923e 60c6 ddbd
00000140: a8b9 9e40 d83c 24be 5f01 49be 00bc babb
00000150: 0997 e4be 98d2 50c0 2e47 fbbe d309 433f
00000160: 2a85 cb3f 085e 1a3d e029 2abe d9de fb3e
00000170: a68c 9cbf cf7b b13e 9c71 61bf 50b4 243f
00000180: 10e9 4bbe 4e75 c23f 08e4 bd3d 9230 0240
00000190: 4674 5b3f 764a e53e ea21 ddbf a847 a03e
000001a0: 349c 02bf a36e d8bf b059 8abf 5c7c 5f3f
000001b0: a44f a8bf 81a4 923f 229e 063f 0038 d33f
000001c0: 6c1b 0640 2993 ebbf 4c80 63bf c03d ffbe
000001d0: cd75 96bf d911 263e 50d3 42be 900a 89bd
000001e0: 3329 6a3f 1a80 923f d779 753f dac4 f7bf
000001f0: c8df 303e 4454 28bf 3728 0e40 4076 3a3e
00000200: 3f08 883f f6a5 d93e 127c e5be 0070 14b9
00000210: fc59 683e 0a62 a4be e994 94be 50d0 de3d
00000220: 8c69 9ebf a0db 593f 0622 a93f 048c 0d3f
00000230: f97a 6d3f d6f8 bdbf 8f45 28bf 63c4 12bf
00000240: 3904 74bf 2c8d 9cbe f0af 133e 2039 24bf
00000250: b8b4 22bf 42d3 bfbf f090 673e 80f7 27bc
00000260: 1a87 b3be f0e0 1dbe 5549 1dbf 0052 603f
00000270: cd26 813f e8b2 4ebf c241 f13e 0054 e93d
00000280: f8f1 eb3f 079d 15c0 da15 103f 56b5 a4c0
00000290: b58b 82bf b96e 02c0 5822 693f 08fc 513e
000002a0: 3aad 81bf c01c 7e3f aa00 eac0 cdd8 00bf
000002b0: be2e b93f 8067 66be dc35 e03e 900c 3ebf
000002c0: c211 dd3e d165 553f 72ad 1b3f 182e c4be
000002d0: be5e a2bf d809 4b3e 187d 20bf 5b72 10bf
000002e0: 9291 813f 2eb3 8cbf be99 63bf fe1b 8b3f
000002f0: d1e9 cf3f 79fe eb3e 96da 4741 4cdd d5be
00000300: 7262 06bf 20c0 59bf b07f 113f 2e1f 2f3f
00000310: 602b d2bc c05f 7d3e c031 bd3e 80e8 303f
00000320: dc9f 953f ec51 9c3e 7c8b a13f ac68 38bf
00000330: 2183 fbbe 9770 ccbe 34c3 cb3d f1c0 0fc0
00000340: de4b 93bf 04e2 093f bf1c 023f b018 b73d
00000350: 5650 b73e c636 183f b3d0 943f 0d58 a2bf
00000360: ba88 323f f2ef 65bf 7ec8 683f a26d 64bf
00000370: e5d7 9dbf a763 4ec1 1b61 053f 6374 2a3f
00000380: 9051 0d3f b9a2 db3e a050 423f 302d 3bbf
00000390: c087 173f 062d f13e b25d ccbf 7654 0fc0
000003a0: 6dcf 7bbf daa4 9dbe 3871 8ebf 7499 26bf
000003b0: 9a97 9f3f 5880 1d3f 5c23 67be 6a55 febf
000003c0: 9a76 383f a863 68c1 5a67 923f 8a9e 2cc0
000003d0: b8c2 c5bf 207e 62be 7a1e 52bf 0c9f 2fbf
000003e0: 80b0 b6bb e6a3 6f3f 56d7 8940 ea50 5bbe
000003f0: 2402 8d3e 3cfd 513f 1c73 fe3e 4275 42bf
